…
Epoch 10/10
2344/2344 [==============================] - 22s 9ms/step - loss: 0.0189
--- train time: 3 minutes ---
history:
{'loss': [0.14470045268535614, 0.06675982475280762, 0.0517316535115242, 0.04254399240016937, 0.03584878519177437, 0.030878495424985886, 0.026835018768906593, 0.02364998124539852, 0.021123716607689857, 0.018915487453341484]}

Summary:
Model: "sequential"
_________________________________________________________________
 Layer (type)                Output Shape              Param #   
=================================================================
 conv2d (Conv2D)             (None, 9, 9, 64)          640       
                                                                 
 batch_normalization (BatchN  (None, 9, 9, 64)         256       
 ormalization)                                                   
                                                                 
 conv2d_1 (Conv2D)           (None, 9, 9, 64)          36928     
                                                                 
 batch_normalization_1 (Batc  (None, 9, 9, 64)         256       
 hNormalization)                                                 
                                                                 
 conv2d_2 (Conv2D)           (None, 9, 9, 128)         8320      
                                                                 
 flatten (Flatten)           (None, 10368)             0         
                                                                 
 dense (Dense)               (None, 162)               1679778   
                                                                 
 reshape (Reshape)           (None, 81, 2)             0         
                                                                 
 activation (Activation)     (None, 81, 2)             0         
                                                                 
=================================================================
Total params: 1,726,178
Trainable params: 1,725,922
Non-trainable params: 256
_________________________________________________________________
None
evaluation:
782/782 [==============================] - 2s 2ms/step - loss: 0.0658
Loss: 0.0657874047756195
Acc whole board: 0.27
…
