…
--- train time: 4 minutes ---
history:
{'loss': [0.1769428551197052, 0.07359842956066132, 0.056561022996902466, 0.04722543805837631, 0.04066373035311699, 0.03557687997817993, 0.031213417649269104, 0.027672044932842255, 0.02479671500623226, 0.022136013954877853, 0.020019421353936195, 0.01821579597890377, 0.016899464651942253, 0.01553129032254219, 0.014294988475739956]}

Summary:
Model: "sequential"
_________________________________________________________________
 Layer (type)                Output Shape              Param #   
=================================================================
 conv2d (Conv2D)             (None, 9, 9, 64)          640       
                                                                 
 batch_normalization (BatchN  (None, 9, 9, 64)         256       
 ormalization)                                                   
                                                                 
 conv2d_1 (Conv2D)           (None, 9, 9, 64)          36928     
                                                                 
 batch_normalization_1 (Batc  (None, 9, 9, 64)         256       
 hNormalization)                                                 
                                                                 
 conv2d_2 (Conv2D)           (None, 9, 9, 128)         8320      
                                                                 
 flatten (Flatten)           (None, 10368)             0         
                                                                 
 dense (Dense)               (None, 162)               1679778   
                                                                 
 reshape (Reshape)           (None, 81, 2)             0         
                                                                 
 activation (Activation)     (None, 81, 2)             0         
                                                                 
=================================================================
Total params: 1,726,178
Trainable params: 1,725,922
Non-trainable params: 256
_________________________________________________________________
None
evaluation:
782/782 [==============================] - 2s 2ms/step - loss: 0.0813
Loss: 0.0812942385673523
Acc whole board: 0.26
…
