…
4688/4688 [==============================] - 34s 7ms/step - loss: 0.0492
Epoch 4/5
4688/4688 [==============================] - 34s 7ms/step - loss: 0.0402
Epoch 5/5
4688/4688 [==============================] - 34s 7ms/step - loss: 0.0340
--- train time: 2 minutes ---
history:
{'loss': [0.1307886391878128, 0.06410353630781174, 0.04918547719717026, 0.040247805416584015, 0.03399885445833206]}

Summary:
Model: "sequential"
_________________________________________________________________
 Layer (type)                Output Shape              Param #   
=================================================================
 conv2d (Conv2D)             (None, 9, 9, 64)          640       
                                                                 
 batch_normalization (BatchN  (None, 9, 9, 64)         256       
 ormalization)                                                   
                                                                 
 conv2d_1 (Conv2D)           (None, 9, 9, 64)          36928     
                                                                 
 batch_normalization_1 (Batc  (None, 9, 9, 64)         256       
 hNormalization)                                                 
                                                                 
 conv2d_2 (Conv2D)           (None, 9, 9, 128)         8320      
                                                                 
 flatten (Flatten)           (None, 10368)             0         
                                                                 
 dense (Dense)               (None, 162)               1679778   
                                                                 
 reshape (Reshape)           (None, 81, 2)             0         
                                                                 
 activation (Activation)     (None, 81, 2)             0         
                                                                 
=================================================================
Total params: 1,726,178
Trainable params: 1,725,922
Non-trainable params: 256
_________________________________________________________________
None
evaluation:
782/782 [==============================] - 2s 2ms/step - loss: 0.0545
Loss: 0.05453263595700264
Acc whole board: 0.23
…
