…
1172/1172 [==============================] - 17s 15ms/step - loss: 0.0594
Epoch 4/5
1172/1172 [==============================] - 17s 15ms/step - loss: 0.0493
Epoch 5/5
1172/1172 [==============================] - 17s 15ms/step - loss: 0.0422
--- train time: 1 minutes ---
history:
{'loss': [0.17522411048412323, 0.07624206691980362, 0.05941363796591759, 0.049313392490148544, 0.04224951192736626]}

Summary:
Model: "sequential"
_________________________________________________________________
 Layer (type)                Output Shape              Param #   
=================================================================
 conv2d (Conv2D)             (None, 9, 9, 64)          640       
                                                                 
 batch_normalization (BatchN  (None, 9, 9, 64)         256       
 ormalization)                                                   
                                                                 
 conv2d_1 (Conv2D)           (None, 9, 9, 64)          36928     
                                                                 
 batch_normalization_1 (Batc  (None, 9, 9, 64)         256       
 hNormalization)                                                 
                                                                 
 conv2d_2 (Conv2D)           (None, 9, 9, 128)         8320      
                                                                 
 flatten (Flatten)           (None, 10368)             0         
                                                                 
 dense (Dense)               (None, 162)               1679778   
                                                                 
 reshape (Reshape)           (None, 81, 2)             0         
                                                                 
 activation (Activation)     (None, 81, 2)             0         
                                                                 
=================================================================
Total params: 1,726,178
Trainable params: 1,725,922
Non-trainable params: 256
_________________________________________________________________
None
evaluation:
782/782 [==============================] - 2s 2ms/step - loss: 0.0688
Loss: 0.06883610785007477
Acc whole board: 0.13
…
